v2.5/Models/classifyerV2_86.tflite (tflite, 3080 bytes, 1 tensors)

model_1/dense_1/MatMul f4 [1, 192]
00000000: 5e33 d540 57bf f7c0 e394 5240 b542 fabf
00000010: 2fa3 0341 de61 da3d 13f3 94be ec08 1bc0
00000020: e0e7 33bf 49bb 04c0 132b 83c0 27c5 ff40
00000030: ace2 c6be 396b 9bbf 4f5d 2341 3819 11bf
00000040: 5171 98bf dc2e 4040 6a30 a1c0 b797 42c0
00000050: e5ed b8bf 8692 0abf e39a 4ebf 7b55 96c1
00000060: b031 1cc0 5b1b d6bf f3f3 5240 697e 3ac0
00000070: b532 e3bf cf68 9abf ca26 e03f 5367 8cbf
00000080: 482f ebbf f40a bb40 9c48 17c0 d515 a6bf
00000090: fe40 ccbf 5f43 2abf 9cc4 b33f 4a99 eb3b
000000a0: 8e3d acc0 382d 0841 883b 4fc0 c209 21c1
000000b0: 5ba0 6c40 3b40 30c0 0a94 0cc0 6b86 9dbe
000000c0: ce42 8540 a49c c53f 4e1b 8cc0 487a 9e3f
000000d0: f236 80bf 02a3 c640 3ebc c7bf b983 32c0
000000e0: 44a9 39bf fad8 c4c0 605b 16bf 0de7 c9be
000000f0: 8d64 bbbf ddc5 20bf 0395 69bf 2540 2cc0
00000100: 10bf edc0 c081 19c0 ad97 c140 636e 13c1
00000110: 593e 89c1 387c 3840 0f7a 2941 bce5 26c0
00000120: 9ab9 38c0 4a22 d5be 42ef d4bf 8acc c4be
00000130: 45b5 f3c0 b56a 34c0 af0b 71c0 5b3e 743f
00000140: 7cbf 3140 5bee 6dbf 989e c740 d2e6 d1bf
00000150: 8d58 e7bf 1bc1 0641 e496 aa40 9209 aabf
00000160: 76aa 4c3f 727d d3bf f695 8abf 6779 14c1
00000170: f11a d9c0 eff4 afbd 7031 b0be 4ada 45bf
00000180: cc23 01c0 6009 25c0 58ec 91c0 c67a 3ebf
00000190: 19a8 85be f323 18c1 33d5 bf40 5044 a0c0
000001a0: ce23 62c0 fdb9 f3be 0a24 a23e 8f8b 69bf
000001b0: cc86 9640 f5c7 d83f 1bda 35c0 ea40 03c1
000001c0: 7827 fcc0 7470 23c0 b0d6 38c0 7f70 db3e
000001d0: a7ae 0cc1 c69a bc40 3d39 123d 3d12 c23e
000001e0: 1d7b 5fc0 e2a7 6b40 62d1 adbf 93b6 a83f
000001f0: e30c 25c1 277b 68c1 1606 a5c1 aae6 5cc1
00000200: fb98 cac0 c348 8fbf 28f7 2c41 73de 9540
00000210: d232 a8c0 0b45 12bf 3b30 81c0 b709 5140
00000220: 5274 09bf 32e0 71be 89cc 0d41 98de 15c1
00000230: d03d a5c0 6f1c 96c1 1cb6 9bc0 e7d2 32c0
00000240: 8ece a1bf 0445 35c0 8907 3040 d080 85c1
00000250: f7b6 8c40 ded4 bc3e fe07 4140 bb6e 0fbf
00000260: d611 dbbf a9aa 8e3e 0fae b4c1 240e 53c1
00000270: ee61 83c1 120e a5bf e9f4 d93e 21ec b83f
00000280: c12d 5840 63a0 28c1 f46f 63c1 5925 5940
00000290: d859 e2bf d82e c53e 12ca d93e 4a19 51c0
000002a0: 9d1a 4440 eea2 1fc1 3b8a edbf 79f5 5abf
000002b0: 77f9 0ec1 a3d9 9d3f 902d c7bf e445 b740
000002c0: cb70 573c 391c 7fc0 6b81 65c0 bc82 0d41
000002d0: 40a2 80bd 7d50 6dbe 0417 ba3e e9ce ce3f
000002e0: 5521 b03d 737c efbf 3241 4c3f 5e07 963f
000002f0: 879c 9dbf d1a1 a3bf 816f c43f 56c8 3440
6.6625204 -7.742107 3.2903373 -1.9551607 8.22734 0.10663198 -0.290917 -2.4224195
-0.7027569 -2.073931 -4.099008 7.9928164 -0.38844812 -1.2142097 10.21028 -0.56679106
-1.1909581 3.00286 -5.03716 -3.04051 -1.44476 -0.5412983 -0.8070509 -18.791739
-2.4405327 -1.6727098 3.2961395 -2.9139655 -1.774985 -1.2063235 1.7511837 -1.0969032
-1.8373804 5.845087 -2.3638067 -1.2975413 -1.5957334 -0.6650905 1.4044375 0.0071899043
-5.382514 8.51104 -3.2380085 -10.064882 3.6972873 -2.7539203 -2.1965356 -0.30766615
4.164405 1.5438428 -4.378333 1.2381067 -1.0016768 6.2073984 -1.5604322 -2.7892897
-0.72523904 -6.1514864 -0.5873318 -0.3943409 -1.4640061 -0.62801915 -0.91243 -2.691415
-7.429573 -2.3985443 6.049765 -9.21445 -17.155443 2.8825817 10.592299 -2.6077719
-2.8863282 -0.41627723 -1.6635516 -0.384373 -7.6158776 -2.8190129 -3.766338 0.95407647
2.7773123 -0.92941827 6.2381096 -1.6398566 -1.8073899 8.422145 5.3309193 -1.3284171
0.799476 -1.6522658 -1.0827014 -9.279639 -6.7845387 -0.08591639 -0.34412718 -0.7728621
-2.0178099 -2.5786972 -4.5601006 -0.7440609 -0.2610481 -9.508777 5.9947753 -5.008339
-3.5334353 -0.47602835 0.3166812 -0.91228575 4.7039547 1.6936022 -2.841437 -8.203348
-7.879818 -2.5537386 -2.8881035 0.42859265 -8.79264 5.8938932 0.035699118 0.3790454
-3.4918892 3.6821218 -1.3579524 1.3180717 -10.315646 -14.5300665 -20.627972 -13.806314
-6.3311744 -1.119408 10.810341 4.6834044 -5.2562037 -0.571366 -4.0371375 3.266218
-0.53693116 -0.2362068 8.862435 -9.366844 -5.1637955 -18.763884 -4.86598 -2.7941225
-1.264116 -2.8323374 2.75046 -16.687897 4.3973346 0.36881155 3.0161128 -0.56028336
-1.7114818 0.27864578 -22.58499 -13.190952 -16.422817 -1.2894919 0.42569664 1.4447061
3.3777926 -10.539157 -14.214832 3.3929045 -1.7683668 0.385123 0.4253698 -3.2671685
3.0641243 -9.977278 -1.855781 -0.8553081 -8.9359045 1.2332042 -1.556078 5.7272816
0.0131494505 -3.9860976 -3.586024 8.844418 -0.06280947 -0.23175235 0.36345685 1.6156894
0.086001076 -1.8709854 0.7978698 1.1720998 -1.2313393 -1.2783757 1.5346528 2.8247275
