v2.5/Models/face_detection_112_79.tflite (tflite, 3032 bytes, 1 tensors)

model/dense/MatMul f4 [1, 192]
0	0x409760cb	4.7305655
1	0xbf181eeb	-0.5942218
2	0x4079b8f3	3.9019134
3	0xc0137efb	-2.3046253
4	0x40bb8d6c	5.8610134
5	0x400d0744	2.2035685
6	0xc01f1217	-2.485479
7	0xbffe9547	-1.9889306
8	0x3eac0f5e	0.33605474
9	0xbf4613b7	-0.7737383
10	0x4060be37	3.5116098
11	0x40b6d405	5.7133813
12	0x4080ca6d	4.02471
13	0x3f6dc4e5	0.9287856
14	0x4110eca4	9.057774
15	0xbfb5b325	-1.4195296
16	0xc0207718	-2.507269
17	0x4090a45f	4.520065
18	0xc00d3c9b	-2.206824
19	0xc122fb69	-10.186379
20	0xc00e8e77	-2.2274454
21	0x3f60871a	0.8770615
22	0xbf68133d	-0.90654355
23	0xc01390b2	-2.3057065
24	0xbf3f9e19	-0.7485061
25	0x40fe1732	7.9403315
26	0x40fe8ae7	7.954456
27	0xbf2cc0f2	-0.6748191
28	0xbf5ed92e	-0.8705014
29	0xbf69db93	-0.9135067
30	0xbf709e33	-0.9399139
31	0xbfc322e5	-1.5245024
32	0xbe9df8ce	-0.30853885
33	0xc106aaa2	-8.416658
34	0xbf92144c	-1.1412444
35	0xbea03a28	-0.3129437
36	0xbf6bf7a8	-0.9217477
37	0x40746906	3.8189101
38	0x3edaec73	0.4275852
39	0xbf8371be	-1.0269086
40	0x3f9f3681	1.2438508
41	0xc0881ba6	-4.253375
42	0x4007af0d	2.1200593
43	0x40cef693	6.4675994
44	0x40c9b03a	6.302762
45	0xbd50c26e	-0.050966673
46	0xbec5e2d8	-0.3864963
47	0xc07cd84d	-3.950702
48	0x3fddffac	1.734365
49	0x3e1413f2	0.14460734
50	0xc02f34de	-2.7376018
51	0x40718674	3.7738314
52	0xbec178d3	-0.37787494
53	0xc0f29e01	-7.5817876
54	0xbccfdbd2	-0.025373373
55	0xc0eb2590	-7.3483353
56	0xbf2fb441	-0.6863442
57	0xc0e6d519	-7.213513
58	0x3f8fd607	1.1237191
59	0x40d8d793	6.776315
60	0xbfb4ed86	-1.4134986
61	0x40116c55	2.272237
62	0xbf6fbc05	-0.9364627
63	0xbf85498e	-1.0413072
64	0xc102d72a	-8.17753
65	0xc034da31	-2.8258173
66	0xc007d109	-2.1221335
67	0x4065c52f	3.5901601
68	0xbfe70dd7	-1.8051099
69	0x40a03f8a	5.007756
70	0x40e486a5	7.141436
71	0xbfb7bb62	-1.435406
72	0xbfa3edeb	-1.2806982
73	0xc1108607	-9.0327215
74	0xbfa47daf	-1.2850856
75	0x410918d1	8.568559
76	0xc0f70076	-7.7188063
77	0x407c37d0	3.9409065
78	0xbf5bdf70	-0.85887814
79	0x3f3456f5	0.70445186
80	0xc0d6ff62	-6.7186747
81	0xbdaa4759	-0.0831439
82	0xbec9dee4	-0.39427865
83	0xbfec77b8	-1.8474035
84	0xbf222349	-0.6333509
85	0x41069030	8.410202
86	0xc1483c78	-12.514763
87	0xbfb31adf	-1.3992575
88	0xbfafd5da	-1.3737137
89	0xbf4b7b91	-0.7948542
90	0xbf30121b	-0.68777627
91	0xc18c800c	-17.562523
92	0x40a52e2e	5.161887
93	0x3fdff975	1.7498003
94	0xbf8d2ce1	-1.1029321
95	0xc013c101	-2.308655
96	0xbfb85cab	-1.440328
97	0xbf718c9d	-0.94355184
98	0x40cd2af4	6.4114933
99	0xc00bc4c9	-2.1838858
100	0xc0c796b1	-6.237145
101	0xc0febd0b	-7.9605765
102	0xc0be1063	-5.9395003
103	0x412243be	10.141539
104	0x3f7cd918	0.9876876
105	0x40f58d27	7.6734805
106	0xbf7a828c	-0.9785545
107	0x3fbb7ead	1.4648033
108	0x405ee096	3.4824576
109	0xc086c925	-4.212054
110	0xbf4f2cbd	-0.8092764
111	0xc13cb86b	-11.795024
112	0xc118cc13	-9.549823
113	0xbf200467	-0.6250672
114	0xc16e23f1	-14.883775
115	0x3c550b8e	0.013003243
116	0xc13b9304	-11.7233925
117	0xbfc74c38	-1.5570135
118	0xbeaef0b4	-0.34168017
119	0xbe27c93e	-0.16385362
120	0xbfc524f5	-1.5401903
121	0xbfd8f3e1	-1.6949426
122	0xbff4e115	-1.913119
123	0xc0966a53	-4.700479
124	0x40ff8797	7.9853015
125	0xbf8fbdd2	-1.1229804
126	0x3f8284e7	1.0196809
127	0x3ed46b47	0.41488096
128	0xbf96138b	-1.1724714
129	0xbf65679d	-0.89611226
130	0xc07c0cc8	-3.93828
131	0xbf7594e6	-0.95930326
132	0xbfb0ba8a	-1.3806927
133	0x3f50b05c	0.81519103
134	0xc00da1e7	-2.2130067
135	0xc00f5ae8	-2.2399235
136	0xc003ebb2	-2.0612607
137	0x3f2a69d8	0.66567755
138	0x3ff97f89	1.9492046
139	0xc10493bc	-8.286068
140	0xc0f7b9ed	-7.741446
141	0xbfd739eb	-1.681455
142	0x4138101e	11.503935
143	0xc03ba4a6	-2.9319243
144	0xbf974722	-1.1818583
145	0xbf58ed5e	-0.84737194
146	0x3efcb793	0.49358806
147	0xbfd9f329	-1.7027332
148	0xc03ebeeb	-2.9804027
149	0x3ff24de1	1.8930017
150	0x40851f31	4.1600575
151	0xc0062a08	-2.0963154
152	0xbff1c039	-1.8886787
153	0x402622ed	2.5958817
154	0xc124065e	-10.2515545
155	0xc1923d42	-18.279911
156	0x3fa693e6	1.3013885
157	0x3fc604d7	1.5470227
158	0xc0343485	-2.8157055
159	0xc104bcfe	-8.296141
160	0x3f256c45	0.6461833
161	0x40e2cb03	7.0872817
162	0x409c5514	4.8853855
163	0xc0cf2099	-6.472729
164	0x41847635	16.557718
165	0x3e658aca	0.22416225
166	0xc125005e	-10.31259
167	0xc0467ec2	-3.1014867
168	0xc0213b1e	-2.5192332
169	0xc124c0a7	-10.297034
170	0xc00f6f2d	-2.2411606
171	0xbff6e6ba	-1.9289162
172	0x40456144	3.0840616
173	0x3ee1800c	0.44043005
174	0x406adcca	3.669726
175	0xc17f51d8	-15.957481
176	0x401ca7d6	2.447744
177	0xc025d84e	-2.5913272
178	0x4064921c	3.5714178
179	0x402f3cc4	2.7380838
180	0x3e0ac3c2	0.13551238
181	0xbf7afd6f	-0.9804296
182	0xc18dbb09	-17.716326
183	0xc0271dbe	-2.6111903
184	0xbeaadf4a	-0.3337348
185	0xbfb3b414	-1.403933
186	0xc0093484	-2.1438303
187	0x3f9de3b5	1.2335116
188	0xbf01bd72	-0.50679696
189	0xbf17cee9	-0.59300095
190	0x3e8fcc97	0.28085777
191	0xc0c8d125	-6.2755303
